model.pth (torch, 7281 bytes, 7 tensors)

shared.0.weight f4 [32, 10]
0	0x3f73cbda	0.9523293
1	0xbd4f6444	-0.05063273
2	0x3f0838ff	0.5321197
3	0xbd61b810	-0.055107176
4	0xbebdebb6	-0.37093896
5	0xbe704e54	-0.2346738
6	0xbe8a72f2	-0.2704082
7	0x3eac5b59	0.33663443
8	0x3f0c53d0	0.5481539
9	0xbb0c07ff	-0.002136707
10	0xbdd12641	-0.102123745
11	0xbe8a7722	-0.27044016
12	0x3dc9b7dd	0.09849522
13	0x3e4d664c	0.20058554
14	0x3e4a5304	0.1975823
15	0x3e5ea3f1	0.21742226
16	0xbe016ff7	-0.12640367
17	0xbe4bbfda	-0.19897404
18	0x3da63664	0.08115843
19	0x3c511b98	0.0127629265
20	0x3f457ef3	0.77146834
21	0x3d73252c	0.05936162
22	0x3e624417	0.22096287
23	0x3ef040d9	0.46924475
24	0xbf25205a	-0.6450249
25	0xbf052e65	-0.5202392
26	0x3debf950	0.11522162
27	0x3f14a853	0.5806934
28	0x3f419317	0.75615066
29	0xb999b3c5	-0.00029316373
30	0xbe3ea50b	-0.18617646
31	0xbe260225	-0.16211756
32	0xbd441de0	-0.047880054
33	0x3d433480	0.04765749
34	0xbe719454	-0.23591739
35	0x3db052c0	0.08609533
36	0xbe78cd55	-0.24297078
37	0x3df75da0	0.120784044
38	0x3e469cba	0.19395724
39	0xbdfc9382	-0.123328224
40	0xbe6e5fe7	-0.23278771
41	0xbe00fe69	-0.1259705
42	0xbed3ece4	-0.4139167
43	0xbe96ed7a	-0.29478055
44	0x3dfce78b	0.12348851
45	0x3e34361a	0.17598763
46	0x3db964d8	0.090524375
47	0x3d6546fe	0.055975907
48	0x3d9461bb	0.07245203
49	0x3cbb1b6b	0.022840222
50	0x3e005c7c	0.1253528
51	0x3e8a451d	0.27005854
52	0x3e2c5696	0.16829905
53	0xbdc0805c	-0.093994826
54	0xbdab2bfa	-0.08357997
55	0xbe2782e8	-0.1635853
56	0x3da28bf0	0.07936847
57	0x3e84cb8d	0.25936547
58	0x3d9aaef0	0.07552898
59	0xbe71effa	-0.236267
60	0xbe856348	-0.26052308
61	0x3d75e3f0	0.06003183
62	0xbcf189a0	-0.02948457
63	0x3e88af63	0.2669631
64	0x3e8cc613	0.2749487
65	0x3da7a3dc	0.081855506
66	0xbe66b475	-0.22529776
67	0x3e71405a	0.23559704
68	0xbd71ca98	-0.0590311
69	0xbe6d699a	-0.23184815
70	0xbe90dfdc	-0.2829579
71	0xbe07b350	-0.13251996
72	0xbe8312b6	-0.25600213
73	0xbc1e272c	-0.009652894
74	0x3bfd5532	0.0077311033
75	0x3cef9dbd	0.02925002
76	0xbe2d1eea	-0.16906324
77	0xbe2efec8	-0.17089379
78	0x3cda2d4f	0.026632933
79	0x3e8c1173	0.27357063
80	0x3d8f9554	0.07010904
81	0x3db36054	0.087586075
82	0x3de0399c	0.10948488
83	0xbe1fd3c6	-0.15608129
84	0xbe665fd6	-0.22497496
85	0x3e4f0186	0.20215425
86	0xbe5bb5aa	-0.21456018
87	0x3e91e8f5	0.28498045
88	0xbe9bbfd7	-0.304198
89	0xbe93ae3b	-0.28843865
90	0xbe0ff6b7	-0.14058958
91	0xbd01d488	-0.031696826
92	0x3bf7d880	0.0075636506
93	0x3d9d1c74	0.07671443
94	0xbe5fe55c	-0.21864837
95	0x3e0f475e	0.13992068
96	0xbe3d42ff	-0.18482588
97	0x3d6ae890	0.057350695
98	0x3e150e84	0.14556319
99	0xbe924b4e	-0.28573078
100	0xbc5b3ba0	-0.013380915
101	0xbd2c0ff8	-0.042007416
102	0x3b5ecc80	0.0033996403
103	0xbe4b7724	-0.19869667
104	0xbe330d80	-0.17485619
105	0xbdf0adb8	-0.11751884
106	0xbe9e7e61	-0.30955794
107	0x3e990005	0.29882827
108	0x3daa49e0	0.08314872
109	0xbd937772	-0.07200517
110	0x3e921395	0.28530565
111	0xbd8b8c37	-0.06813853
112	0x3e5795b3	0.210532
113	0x3d594e52	0.053053208
114	0xbdf084d8	-0.11744088
115	0x3c9e4b2e	0.019322958
116	0xbd9d49b2	-0.07680072
117	0xbd97312c	-0.07382426
118	0x3e98c987	0.29841253
119	0x3df669d0	0.12031901
120	0xbe92a117	-0.28638527
121	0xbda2f19a	-0.07956238
122	0x3de61584	0.112345725
123	0xbe8dfc6d	-0.27731648
124	0x3dc49338	0.09598392
125	0xbe6c287c	-0.23062319
126	0x3e4bf06a	0.1991593
127	0x3dae2724	0.08503559
128	0x3d50f898	0.051018327
129	0xbe5edc43	-0.2176371
130	0xbcc1cea0	-0.023658097
131	0xbe8102fb	-0.25197586
132	0x3e476c62	0.19474939
133	0x3dba413c	0.09094474
134	0xbea01e54	-0.3127314
135	0xbd9f30d8	-0.07772988
136	0xbe68df86	-0.22741517
137	0x3d750a78	0.059824437
138	0xbe185924	-0.14877754
139	0xbe8b427a	-0.27199155
140	0xbe80e566	-0.25175017
141	0xbddea414	-0.10871139
142	0xbc722c40	-0.014781058
143	0xbe91f573	-0.28507575
144	0x3b58b300	0.0033065677
145	0xbbc95ac0	-0.0061448514
146	0xbe8318ca	-0.2560485
147	0xbd23f580	-0.04002905
148	0x3d9c52f0	0.076330066
149	0xbe1abbfc	-0.15110773
150	0x3bd37940	0.006453663
151	0x3e03e008	0.1287843
152	0xbea168b6	-0.315252
153	0xbe9ecd16	-0.31015843
154	0x3e8cd30d	0.2750477
155	0xbe536b87	-0.20646487
156	0xbe08752b	-0.13325946
157	0xbe7d56b5	-0.24740107
158	0x3e780f16	0.24224505
159	0xbd4270d8	-0.047470897
160	0xbe85aa2a	-0.26106387
161	0x3ea7f753	0.3280588
162	0x3c7630af	0.0150262555
163	0x3d724730	0.05914992
164	0xbe442adf	-0.19156979
165	0xbe39a9ec	-0.18131226
166	0xbe577bf5	-0.2104338
167	0x3e946b5b	0.28988156
168	0x3e98bc09	0.2983096
169	0x3e2b51a6	0.16730365
170	0xbe64184c	-0.22274894
171	0xbe0a111d	-0.1348309
172	0xbe8da856	-0.27667493
173	0xbe324a54	-0.17411166
174	0xbe02e58d	-0.12782879
175	0xbe767cb4	-0.24071008
176	0xbe1b1d19	-0.15147819
177	0x3e90ed7d	0.2830619
178	0xbc8f81f0	-0.017518014
179	0xbd90c9ce	-0.07069741
180	0xbe6886cb	-0.2270767
181	0x3dff8968	0.1247738
182	0x3d527fe8	0.051391512
183	0x3e8b32b1	0.27187112
184	0xbe8b6293	-0.27223644
185	0x3e114330	0.14185786
186	0x3e251108	0.16119778
187	0xbe3fe106	-0.18738183
188	0x3d133ea8	0.035948426
189	0xbdcc76bc	-0.09983584
190	0x3d78ee50	0.060774148
191	0x3dc57ac4	0.09642556
192	0xbd0abc40	-0.033870935
193	0xbe0c70c9	-0.13714899
194	0x3e1a6f36	0.15081486
195	0xbd468dd8	-0.048475116
196	0x3dc6c4cc	0.09705505
197	0x3da3246c	0.07965931
198	0x3dc97688	0.09837061
199	0xbe7fd93e	-0.24985215
200	0x3db7b0c8	0.08969265
201	0x3e1e56b2	0.15462759
202	0xbd6eeaf8	-0.058329552
203	0xbce63db0	-0.028105587
204	0xbe22da13	-0.15903501
205	0xbd547530	-0.05186957
206	0xbe08c765	-0.13357313
207	0xbe95476c	-0.29156053
208	0xbe771fda	-0.24133244
209	0xbc5c01a0	-0.013428122
210	0x3f459076	0.77173555
211	0x3d8211c6	0.06351046
212	0x3f391e1b	0.7231156
213	0x3e4f05cc	0.20217055
214	0xbe8cf6b0	-0.27531958
215	0xbe58d113	-0.21173505
216	0x3dbacd24	0.09121159
217	0x3f0ae658	0.54257727
218	0xbe940b62	-0.28914934
219	0xbb5e4e6f	-0.0033921262
220	0xbe4adeea	-0.19811597
221	0xbd8395dc	-0.06425068
222	0xbe8f8c22	-0.280366
223	0xbe73d50c	-0.2381174
224	0x3e25e664	0.16201168
225	0x3cd048c0	0.025425315
226	0xbe92b9fc	-0.2865752
227	0x3ddfb58c	0.10923299
228	0xbe5372a7	-0.20649205
229	0xbe892fcc	-0.2679428
230	0x3e1bb928	0.1520735
231	0x3ea13431	0.3148513
232	0x3e22382e	0.15841743
233	0x3e94f1e3	0.29090795
234	0x3e822b75	0.2542378
235	0xbd665390	-0.056232035
236	0xbd2cc7d8	-0.042182773
237	0x3e96a0c7	0.29419538
238	0x3e5d1896	0.2159141
239	0xbe89e5fc	-0.26933277
240	0x3da8ce4c	0.08242473
241	0xbe818754	-0.2529856
242	0xbe2ffdc0	-0.17186642
243	0x3c7e2be0	0.01551339
244	0x3d652498	0.0559431
245	0x3e8991f5	0.2686917
246	0x3db5051c	0.08838865
247	0x3da12594	0.078684956
248	0x3e4e6392	0.2015517
249	0xbbe58e40	-0.007005483
250	0xbd4857f8	-0.04891202
251	0x3d250be0	0.040294528
252	0xbe965809	-0.2936404
253	0x3e9a1edb	0.30101666
254	0x3e8a8f51	0.27062467
255	0x3e840e81	0.25792316

shared.0.bias f4 [32]
0	0x3f3b7296	0.7322172
1	0xbe3db8fd	-0.18527599
2	0x3f414a8e	0.75504386
3	0xbdaa8318	-0.083257854
4	0xbe79e9fa	-0.24405661
5	0x3ca539c0	0.020169139
6	0xbe1830e7	-0.14862405
7	0x3e84e106	0.2595293
8	0x3e8a9d15	0.2707297
9	0xbdb56b52	-0.0885836
10	0x3dea8038	0.11450237
11	0xbdce808c	-0.10083112
12	0x3e6e5fd2	0.2327874
13	0xbdf403f8	-0.119148195
14	0x3bb33cc0	0.0054698884
15	0x3e5dbb92	0.21653584
16	0x3cb7e01d	0.022445733
17	0x3dc9f938	0.09861988
18	0x3b185c00	0.0023248196
19	0x3e58b132	0.21161345
20	0xbe109c29	-0.1412207
21	0x3f3a6713	0.7281353
22	0x3e0b48ae	0.13601944
23	0x3d4684b8	0.048466414
24	0x3cf6e130	0.030136675
25	0xbe21a885	-0.15786941
26	0xbe34a3b0	-0.17640567
27	0x3e7878e2	0.24264863
28	0xbdccccca	-0.09999998
29	0x3df959f4	0.1217536
30	0x3e9d2b35	0.30697027
31	0xbdb4f1e0	-0.088351965

shared.2.weight f4 [16, 32]
0	0xbe18f288	-0.14936268
1	0xbda30d4c	-0.079615206
2	0x3dd0d092	0.10196032
3	0xbd4e11c8	-0.050309926
4	0x3cd957a0	0.02653104
5	0x3c3af600	0.01141119
6	0xbd173770	-0.036918104
7	0x3d8088c2	0.062760845
8	0xbe0e592a	-0.13901201
9	0x3e268799	0.16262664
10	0xbde9a8ef	-0.11409175
11	0xbdbffc92	-0.09374346
12	0x3dea6822	0.11445643
13	0xbdc986f4	-0.098401934
14	0xbe2465ec	-0.16054505
15	0x3c8c95c8	0.017161265
16	0xbdf3619e	-0.118838534
17	0xbcaca0d8	-0.02107279
18	0x3dfd8866	0.123795316
19	0xbe1c5599	-0.15267028
20	0xbc647be0	-0.01394555
21	0x3dd24a3a	0.10268064
22	0xbdb7b9cb	-0.08970984
23	0x3dc876ae	0.09788261
24	0x3e129bed	0.14317293
25	0xbdb45479	-0.088051744
26	0x3d34e298	0.04416141
27	0xbcae4240	-0.021271825
28	0x3d22bc4c	0.039730355
29	0xbde1667d	-0.11005876
30	0xbda53dec	-0.08068451
31	0xbdbfdc25	-0.09368161
32	0x3d994b90	0.074851155
33	0x3e1a120f	0.15045951
34	0xbe2a74bc	-0.16646093
35	0x3cfac890	0.030613214
36	0x3d7d38dc	0.061821803
37	0xbe317250	-0.17328763
38	0x3d9d384a	0.07676752
39	0xbdb6ec1e	-0.089317545
40	0x3dc0c8be	0.094132885
41	0xbdef3b34	-0.11681214
42	0xbdfbc0da	-0.12292643
43	0x3d52c5a2	0.05145801
44	0xbd1d60a0	-0.038422227
45	0x3b6ef3c0	0.0036461204
46	0xbd6749fc	-0.05646704
47	0x3d153eb0	0.036436737
48	0xbe0d4f50	-0.13799787
49	0xbdb7a21e	-0.08966468
50	0xbd6de70a	-0.058081664
51	0xbdead77d	-0.114668824
52	0xbdb192a5	-0.08670548
53	0x3de2618d	0.110537626
54	0x3cc94c68	0.024572566
55	0x3d86668e	0.065625295
56	0x3dfb7332	0.12277831
57	0x3e2aa599	0.16664733
58	0xbe1f1e39	-0.15538873
59	0xbc4e42ba	-0.012589151
60	0x3c0e78e5	0.008695816
61	0xbdea77d0	-0.11448634
62	0x3e328673	0.17434101
63	0x3d913542	0.07090236
64	0x3f3de987	0.7418446
65	0xbe186980	-0.14883995
66	0x3f076d88	0.52901506
67	0xbdf43fcc	-0.11926231
68	0x3d5cf30c	0.053942725
69	0x3d9b2b82	0.07576658
70	0xbdb90f5e	-0.09036134
71	0x3ce37f85	0.027770767
72	0xbd5789e8	-0.052621752
73	0x3d729dd8	0.059232563
74	0xbd847ee2	-0.064695135
75	0xbdcd436d	-0.10022626
76	0xba6d3200	-0.0009048283
77	0xbe1184b9	-0.14210786
78	0xbda3a2bd	-0.07990024
79	0xbdef978e	-0.11698829
80	0xbde99614	-0.11405578
81	0x3e0ea09b	0.13928454
82	0xbd242788	-0.040076762
83	0xbc7bad70	-0.015361175
84	0x3e0b90ad	0.13629408
85	0x3f3d7b76	0.7401651
86	0x3dfad356	0.122473404
87	0xbd52b698	-0.051443666
88	0x3daf49ea	0.0855902
89	0x3b4b9400	0.0031063557
90	0xbe30ea4b	-0.17276876
91	0xbc7aabd0	-0.015299752
92	0xbe07b129	-0.13251175
93	0xbd4468f8	-0.04795167
94	0xbdd6bbce	-0.1048504
95	0x3d205b70	0.0391497
96	0x3ee2fd01	0.44333652
97	0xbe1eea6d	-0.15519114
98	0x3eaccb3c	0.33748806
99	0x3dcb563e	0.09928559
100	0x3dfbfac9	0.12303693
101	0x3e06a607	0.13149272
102	0xbd8132e6	-0.06308536
103	0x3c0d88ba	0.008638555
104	0xbe27692b	-0.16348712
105	0x3dd4c142	0.103884235
106	0xbd84108b	-0.06448468
107	0x3d48da30	0.049036205
108	0xbe194f88	-0.14971745
109	0xbc391590	-0.011296645
110	0xbcfe01f8	-0.031006798
111	0xbdc2d002	-0.095123306
112	0xbdc3b02c	-0.095550865
113	0xbdbd1efb	-0.09234425
114	0x3dc1cece	0.09463273
115	0x3d1de2e8	0.038546473
116	0xbd097ff4	-0.03356929
117	0x3f079ed5	0.52976733
118	0xbe053992	-0.13010243
119	0xbcb52c30	-0.022115797
120	0xbd9538f5	-0.07286254
121	0x3e1ec85f	0.15506123
122	0x3d1f56ce	0.038901143
123	0x3d1fa59f	0.038976308
124	0x3dd9d1c9	0.106357165
125	0x3d74d088	0.059769183
126	0x3c263e70	0.010146722
127	0x37b26000	2.1263957e-05
128	0x3e8f79ce	0.28022617
129	0x3d4ecf06	0.0504904
130	0x3e810407	0.25198385
131	0x3e333807	0.17501841
132	0xbe1be894	-0.1522544
133	0x3d5a3378	0.05327174
134	0x3db4a3ba	0.08820291
135	0x3d65d798	0.05611381
136	0x3d1c13bc	0.038104758
137	0x3de386ce	0.11109696
138	0x3cb6e208	0.022324577
139	0x3d949229	0.0725444
140	0x3dfe1f82	0.124083534
141	0x3d9d0a62	0.07667996
142	0xbe13c2d6	-0.14429793
143	0xbd88ff5c	-0.06689331
144	0x3e13ff9e	0.14452979
145	0xbd90892f	-0.07057416
146	0x3dd5ca2e	0.10438953
147	0xbe19bb38	-0.15012825
148	0xbd4eb4ac	-0.05046527
149	0x3e0fe1ca	0.14050975
150	0x3e2ab173	0.16669254
151	0xbe049b20	-0.129498
152	0xbde27b49	-0.11058671
153	0xbdb93cb9	-0.09044785
154	0xbdcf7705	-0.10130123
155	0x3e0a6a7e	0.13517186
156	0x3dae7265	0.08517913
157	0x3ddeabb6	0.10872595
158	0xbd46d41c	-0.048542127
159	0x3e232761	0.1593299
160	0x3ebd981a	0.37030107
161	0x3e1993e9	0.1499783
162	0x3ec33459	0.38125876
163	0xbd80aef2	-0.06283368
164	0xbdf6c123	-0.12048557
165	0xbd4d6458	-0.050144523
166	0x3ddd55c6	0.108073756
167	0xbbb9c5da	-0.0056693377
168	0x3e1f4095	0.1555198
169	0x3dbeb0b2	0.09311046
170	0xbdffcb3c	-0.12489936
171	0xbd30175d	-0.04299103
172	0xbde77548	-0.113016665
173	0x3c408d30	0.011752412
174	0x3dd18162	0.10229756
175	0x3d429db4	0.04751368
176	0x3afb835c	0.0019188928
177	0x3dc28d72	0.09499635
178	0x3c8d8f38	0.017280206
179	0xbe1d9dc8	-0.1539222
180	0x3d8ea6c0	0.06965399
181	0x3f1a8dab	0.6037242
182	0xbded0382	-0.11572935
183	0x3d73dfd8	0.059539646
184	0xbd524048	-0.051330835
185	0xbc950388	-0.01819016
186	0x3be0ccf8	0.0068603717
187	0x3e159300	0.14606857
188	0x3d851374	0.06497851
189	0x3d26b9c9	0.040704522
190	0xbd79ff32	-0.06103439
191	0x3e023ea3	0.12719207
192	0x3bb04b91	0.005380102
193	0x3d6bbe74	0.057554677
194	0xbeefb0ac	-0.46814477
195	0x3e16f64b	0.14742391
196	0x3d212a5f	0.03934705
197	0x3d9dafd2	0.07699551
198	0xbdf7c638	-0.12098354
199	0xbd9b82fb	-0.07593342
200	0x3d74eb4c	0.05979471
201	0x3d9edbc2	0.07756759
202	0xbabf0c80	-0.0014575869
203	0x3dec2da5	0.115321435
204	0xbcbe3690	-0.023219377
205	0x3d813d5a	0.0631053
206	0xbd250458	-0.040287346
207	0xbda732b8	-0.08163971
208	0xbdc04ecc	-0.09390029
209	0xbdaabe64	-0.083370954
210	0xbd5cfdbc	-0.053952917
211	0x3d687758	0.05675444
212	0x3df0524a	0.117344454
213	0x3eaed59b	0.34147343
214	0x3e1a1995	0.15048821
215	0x3d4bf474	0.049793676
216	0xbd677c80	-0.056515217
217	0xbe1339b4	-0.14377481
218	0xbdf40982	-0.11915876
219	0x3c61d2bd	0.013783154
220	0x3d91162a	0.070843056
221	0x3d513dd7	0.051084366
222	0xbdd4e9fa	-0.1039619
223	0x3e12fc61	0.14354087
224	0xbdb040ea	-0.086061314
225	0xbe28e568	-0.16493762
226	0xbdf1a000	-0.11798096
227	0xbe13d30d	-0.14435978
228	0xbd80f0c3	-0.06295922
229	0xba471100	-0.0007593781
230	0xbc6e9ab0	-0.014563248
231	0xbd98a450	-0.07453215
232	0x3dbf3ba6	0.09337549
233	0xbde83236	-0.11337702
234	0x3e08e0a3	0.13366942
235	0x3ddb3d96	0.10705106
236	0xbda2e095	-0.07952992
237	0xbde44aa7	-0.11147051
238	0x3ddb2aaa	0.10701497
239	0xbd27c030	-0.04095477
240	0xbd6dcaa0	-0.058054566
241	0xbc997208	-0.018731132
242	0x3c74f280	0.014950395
243	0x3d913c80	0.070916176
244	0x3e07f31d	0.13276334
245	0x3e06bfef	0.13159154
246	0x3d09aa98	0.033609957
247	0x3c80c140	0.015717149
248	0xbe2b46af	-0.16726182
249	0xbdea3c66	-0.11437301
250	0x3d2fa200	0.042879105
251	0x3e044389	0.12916388
252	0xbe0bef7a	-0.13665572
253	0xbdd0fe68	-0.10204774
254	0xbc1870e0	-0.009304255
255	0x3dc830e6	0.09774952

shared.2.bias f4 [16]
0	0xbdd5cfd5	-0.104400314
1	0xbc871b74	-0.016492583
2	0x3eff56a9	0.49870804
3	0xbcfe8184	-0.031067617
4	0x3d99ac4e	0.07503568
5	0xbe244b0c	-0.16044253
6	0xbe25cf00	-0.16192245
7	0xbd848c0b	-0.064720236
8	0x3b8d615c	0.0043145847
9	0xbd88d406	-0.06681065
10	0x3d6fbd5c	0.058530197
11	0xbd37b878	-0.044853657
12	0x3ee3833f	0.4443607
13	0x3d147141	0.03624082
14	0x3ee79f01	0.45238498
15	0xbc80023c	-0.015626065

rev_head.weight f4 [1, 16]
0	0xbe75b058	-0.23993051
1	0x3df04a6a	0.11732943
2	0xb911f748	-0.00013920397
3	0x3e41fe8b	0.18944757
4	0x3e3cd198	0.18439329
5	0xbe230f70	-0.15923858
6	0xbdf1e52c	-0.11811289
7	0xbd9d8cb8	-0.076928556
8	0xbc07dfe5	-0.008293127
9	0xbe566c34	-0.20939714
10	0x3d2a146f	0.041523393
11	0x3d9cfec1	0.07665778
12	0x3cc632b3	0.024194097
13	0x3e21cf97	0.15801845
14	0xbb8fe643	-0.004391463
15	0xbe6e5895	-0.23275979

surv_head.weight f4 [3, 16]
0	0x3deaea0c	0.11470422
1	0x3d8c1092	0.06839098
2	0x3efb388f	0.49066588
3	0x3eb0c50e	0.3452534
4	0x3e10271d	0.1407742
5	0x3e2800ef	0.16406606
6	0x3da998c0	0.08281088
7	0x3e11e216	0.14246401
8	0x3dc6f1a7	0.0971406
9	0x3ec1df10	0.37865496
10	0x3d831485	0.06400398
11	0x3eaaf2c3	0.33388337
12	0x3ec8e239	0.39235094
13	0x3e0dcdf9	0.13848104
14	0x3ec9172d	0.39275494
15	0x3dae309b	0.085053645
16	0x3e6beb42	0.23038962
17	0x3ddc58c3	0.107591175
18	0xbf2a7e55	-0.6659902
19	0xbd31f0c8	-0.043442518
20	0x3dc5e605	0.09663013
21	0xbdc719ea	-0.097217396
22	0x3db37e7b	0.087643586
23	0xbe33a70e	-0.17544195
24	0xbc003e52	-0.007827358
25	0x3e663ee7	0.22484933
26	0xbe3e20c4	-0.18567187
27	0xbe518898	-0.20462263
28	0x3e063b12	0.13108471
29	0x3d29d970	0.04146713
30	0xbf2cd2b2	-0.67508996
31	0x3e59d858	0.21273935
32	0xbe4ae328	-0.19813216
33	0x3c83efde	0.016105589
34	0xbe7ae9f0	-0.24503303
35	0xbe55b192	-0.20868519
36	0xbc1bb9cf	-0.009504749
37	0xbe0f7f48	-0.14013398
38	0x3dfcb905	0.12339977
39	0x3e71601e	0.23571822
40	0x3dcf2bdd	0.10115788
41	0xbe0bfc9e	-0.13670585
42	0xbe0cd9d4	-0.1375497
43	0x3e3905cc	0.18068618
44	0xbf3c5c53	-0.73578376
45	0x3df1db2b	0.11809381
46	0xbe92a1de	-0.2863912
47	0x3e1a0c9d	0.15043874

surv_head.bias f4 [3]
0	0x3d47946a	0.048725523
1	0x3d10bfea	0.035339274
2	0xbe6d6738	-0.23183906
