model.pth (torch, 7025 bytes, 7 tensors)

shared.0.weight f4 [32, 10]
0.014081877 -0.3446984 0.60571766 0.12196817 -0.48658124 -0.42198735 0.03431183 0.4346183
-0.033790167 0.097566545 0.031520497 0.0384979 -0.19764549 0.5321476 -0.14169747 -0.21772559
-0.046949625 -0.27235088 0.13177727 0.1631742 -0.022520827 0.26019874 0.35913363 -0.51549214
0.24516802 0.23813966 -0.24361011 0.04059826 -0.011933379 0.2987398 0.27078238 -0.16009292
0.26902285 -0.23000732 -0.0994937 0.18340483 -0.10716815 0.28183213 0.29443046 -0.3134216
-0.43623334 0.14801309 0.5347405 -0.23254384 -0.011353557 0.17416488 0.11373222 -0.234245
-0.23418911 0.17729789 0.033673316 0.17398533 -0.20534286 -0.17171894 -0.22587325 0.057161987
0.312745 0.24936864 0.30392215 -0.26331505 -0.35865608 0.0025396254 -0.38448274 -0.20117034
0.10858593 0.30048928 -0.21950436 0.11600777 -0.12411086 0.120905 -0.025572598 0.21321806
0.03820178 0.13753355 -0.2580076 0.2380695 -0.20775074 0.039146453 -0.25052455 -0.1600945
-0.28342438 0.27287582 -0.21058293 0.18435904 -0.21915612 0.30523744 0.22990939 0.03150031
-0.15942137 -0.15704148 0.20188102 0.2904974 -0.1636797 -0.041137546 0.30991527 -0.18993096
0.19681004 0.12578818 -0.054927915 -0.22344656 0.3886985 0.064127475 0.24011911 0.070592254
-0.012763701 0.07802955 -0.07290456 0.30044308 0.46955046 0.15597482 -0.21320812 0.06959516
0.030298978 0.28010097 -0.050030947 0.110182166 0.088116914 0.03909582 0.25352553 -0.15641442
-0.3061745 0.46129036 -0.50059384 0.23279864 0.15545383 0.36398065 0.27274743 -0.19828334
-0.29253942 0.26009053 0.002198279 0.27539137 0.04021147 0.22006753 0.15672201 -0.1872816
-0.19111454 -0.28579727 -0.21510845 -0.041683674 0.23550658 -0.23325297 0.2013519 0.5411148
-0.087605156 -0.119861014 0.0868758 0.5133881 0.09316005 0.2816836 0.15321717 0.17151177
0.16219705 -0.20043033 0.06406066 0.06799972 0.21314225 -0.03780961 -0.14302358 -0.13269049
-0.17522272 0.24367957 -0.35514894 0.16043311 -0.36799306 -0.27328354 -0.13239151 0.27023154
-0.02643557 0.29834023 0.07830027 0.0112665 -0.18936324 0.13601688 -0.090162456 -0.044834465
0.104395926 -0.002756387 0.2539449 -0.10779253 -0.1480126 -0.08758418 -0.0973676 0.042140663
0.28867838 0.06719327 0.19982883 0.21257475 -0.26182273 -0.13205254 0.2618256 0.20001349
-0.075958565 0.14761826 0.024863392 0.017039895 0.30209073 -0.009819984 0.1533744 -0.31154162
0.20162717 -0.08875175 0.00047075748 0.15482095 -0.027016878 -0.06825867 -0.10279213 0.011236697
0.07224375 -0.046025783 0.28258488 0.29909852 -0.076908916 0.3106663 -0.060371578 -0.27350754
0.12174064 0.2944081 -0.04051432 -0.21919438 -0.21605691 0.21839687 0.2635812 0.14012635
-0.06267184 -0.15489596 -0.2759514 -0.1172539 0.20794728 -0.05245185 0.11087674 0.025114
-0.074552864 0.19812813 0.09172952 -0.26501572 -0.24002889 0.1862798 0.04685211 -0.04078111
-0.22134128 -0.29745188 -0.20845985 -0.20427051 0.16231728 -0.28433126 0.29002997 0.28602222
0.03323427 -0.18889062 -0.005710304 0.10233483 0.0030473769 -0.11969255 -0.08769645 0.2490398
00000000: acb7 663c 4f7c b0be 5010 1b3f 73ca f93d
00000010: 2d21 f9be ba0e d8be 908a 0c3d 4a86 de3e
00000020: 8f67 0abd f8d0 c73d a31b 013d f9af 1d3d
00000030: 9463 4abe d33a 083f 2419 11be 75f3 5ebe
00000040: 404e 40bd 9371 8bbe 9ff0 063e 2317 273e
00000050: 997d b8bc c538 853e 5de0 b73e 4bf7 03bf
00000060: 530d 7b3e e2da 733e ee74 79be 5c4a 263d
00000070: 3884 43bc 6cf4 983e fda3 8a3e 66ef 23be
00000080: 5dbd 893e 0a87 6bbe 5ac3 cbbd 7ace 3b3e
00000090: fa7a dbbd 4d4c 903e 97bf 963e cc78 a0be
000000a0: fa59 dfbe be90 173e c1e4 083f f91f 6ebe
000000b0: 4504 3abc 4758 323e 70ec e83d ecdd 6fbe
000000c0: 45cf 6fbe 948d 353e 08ed 093d 3629 323e
000000d0: 6645 52be 17d7 2fbe 514b 67be b022 6a3d
000000e0: 1d20 a03e 7e5a 7f3e af9b 9b3e 3bd1 86be
000000f0: c5a1 b7be d86f 263b ecda c4be 99ff 4dbe
00000100: 4d62 de3d bbd9 993e c0c5 60be 7b95 ed3d
00000110: d62d febd 0a9d f73d a07d d1bc d655 5a3e
00000120: 7879 1c3d 98d5 0c3e 9219 84be 7ec8 733e
00000130: 9cbc 54be 0858 203d c144 80be d0ef 23be
00000140: 001d 91be 61b6 8b3e 0da3 57be 9ec8 3c3e
00000150: 766a 60be 1548 9c3e 5e6d 6b3e 7806 013d
00000160: 5b3f 23be 7bcf 20be e6b9 4e3e 13bc 943e
00000170: a79b 27be d87f 28bd 37ad 9e3e 437d 42be
00000180: 9288 493e 9ece 003e 18fc 60bd 2dcf 64be
00000190: 7d03 c73e 4455 833d c9e1 753e ac92 903d
000001a0: d81e 51bc f5cd 9f3d fc4e 95bd add3 993e
000001b0: eb68 f03e ddb7 1f3e 3b53 5abe e887 8e3d
000001c0: 9035 f83c 6569 8f3e 40ed 4cbd 30a7 e13d
000001d0: a476 b43d f022 203d 19ce 813e 1a2b 20be
000001e0: e7c2 9cbe 402e ec3e eb26 00bf c462 6e3e
000001f0: 4a2f 1f3e ac5b ba3e 8da5 8b3e ca0a 4bbe
00000200: bac7 95be 962a 853e 0011 103b 1900 8d3e
00000210: c8b4 243d 6259 613e bc7b 203e bfc6 3fbe
00000220: 88b3 43be 0554 92be 6445 5cbe 80bc 2abd
00000230: a328 713e ded9 6ebe 312f 4e3e 8086 0a3f
00000240: 556a b3bd b179 f5bd f0eb b13d 676d 033f
00000250: b2ca be3d d538 903e f6e4 1c3e c8a0 2f3e
00000260: fc16 263e 9c3d 4dbe 3c32 833d 7043 8b3d
00000270: f641 5a3e 40de 1abd c674 12be 04e0 07be
00000280: 966d 33be 2387 793e 15d6 b5be 9448 243e
00000290: 9669 bcbe d2eb 8bbe a491 07be ca5b 8a3e
000002a0: 698f d8bc 0dc0 983e e45b a03d 2097 383c
000002b0: 70e8 41be 0248 0b3e 18a7 b8bd 58a4 37bd
000002c0: 88cd d53d 80a4 34bb 1105 823e 54c2 dcbd
000002d0: 9d90 17be 565f b3bd aa68 c7bd b09b 2c3d
000002e0: a7cd 933e a09c 893d ee9f 4c3e 32ad 593e
000002f0: a10d 86be c838 07be 010e 863e 56d0 4c3e
00000300: 2a90 9bbd 3e29 173e 50ae cb3c 4097 8b3c
00000310: a3ab 9a3e 00e4 20bc 2e0e 1d3e 6282 9fbe
00000320: 5a77 4e3e 7ac3 b5bd 00d0 f639 6289 1e3e
00000330: 8052 ddbc 34cb 8bbd ae84 d2bd 201a 383c
00000340: 88f4 933d 8885 3cbd f7ae 903e 7123 993e
00000350: 6c82 9dbd a70f 9f3e 3048 77bd 2e09 8cbe
00000360: 2853 f93d a9bc 963e 58f2 25bd 7e74 60be
00000370: 063e 5dbe 6ea3 5f3e 1df4 863e 487d 0f3e
00000380: 185a 80bd 0c9d 1ebe 8049 8dbe d022 f0bd
00000390: 22f0 543e c0d7 56bd 5813 e33d e0bb cd3c
000003a0: 2caf 98bd 1ae2 4a3e b0dc bb3d 24b0 87be
000003b0: 22ca 75be 22c0 3e3e 00e8 3f3d 180a 27bd
000003c0: 4aa7 62be 9d4b 98be 8076 55be 4a2c 51be
000003d0: 8036 263e de93 91be cf7e 943e 8171 923e
000003e0: a820 083d 8b6c 41be 801d bbbb ec94 d13d
000003f0: 80b6 473b 5e21 f5bd 329a b3bd 4a04 7f3e

shared.0.bias f4 [32]
0.4369934 -0.2092238 -0.06453474 -0.12608254 -0.39060828 0.09724966 0.07532647 -0.19738406
0.2528005 0.123681515 0.36240375 -0.031306744 -0.29852182 -0.008054554 0.30136222 -0.013791025
0.08403651 0.24050787 0.14826113 -0.21118292 0.21858177 0.065941334 -0.28121483 0.14104545
0.14122772 -0.19707626 -0.19054331 0.05365929 0.19682732 0.1214622 0.10932996 -0.21386638
00000000: 99bd df3e c43e 56be ca2a 84bd c81b 01be
00000010: cffd c7be d42a c73d c444 9a3d 0c1f 4abe
00000020: 116f 813e bc4c fd3d fc8c b93e 803b 00bd
00000030: dad7 98be 40f7 03bc 264c 9a3e c0f3 61bc
00000040: 551b ac3d b247 763e c4d1 173e 5640 58be
00000050: e6d3 5f3e 400c 873d 64fb 8fbe 386e 103e
00000060: 009e 103e 5cce 49be c91d 43be d8c9 5b3d
00000070: 1a8d 493e 2dc1 f83d 63e8 df3d caff 5abe

shared.2.weight f4 [16, 32]
-0.0955296 0.050411146 -0.01299834 -0.118095696 0.105672866 -0.15222475 0.024544409 0.052793577
0.03552659 -0.14451927 -0.06250236 0.11795063 0.088582054 0.10876821 0.09608543 -0.04300742
0.11792946 0.17334147 -0.014835075 0.113953635 -0.05667208 0.10081343 0.123576716 0.028623953
-0.11140405 0.060887232 -0.10908658 0.17593949 -0.09732887 -0.13307512 -0.12778012 0.053793136
0.14923888 -0.0519649 0.14739148 0.13782321 0.11963195 -0.112767264 0.12999223 -0.13689566
0.1357791 0.023947224 0.07556251 0.12556122 -0.112028584 -0.030208856 -0.10281788 0.0412409
0.055914313 0.14402603 -0.14152132 -0.053245 0.06455156 -0.15130854 -0.13961314 -0.07420176
-0.04276219 0.14968754 -0.059983544 0.10922669 -0.14933962 0.08138401 0.020562464 -0.11666183
-0.010766268 -0.15545243 -0.01917252 0.076658204 0.109153196 0.14040087 -0.029978067 0.044869095
0.15173216 -0.06126666 -0.14464723 0.14760713 -0.1679646 -0.16772705 -0.061958626 -0.14671095
0.14392783 -0.025503367 -0.043525636 -0.12350957 0.06627539 -0.11998889 -0.026324034 -0.057648435
-0.00972636 0.05336809 -0.15830693 -0.11382464 0.017892942 -0.15280786 -0.16748795 0.11908229
-0.009186745 0.06871827 -0.15865347 -0.045060813 0.08762194 0.015468866 -0.091277555 0.114304915
-0.042869434 0.15186958 0.13961105 0.097724184 -0.0842377 -0.0257556 0.10700612 -0.10015958
-0.16961634 -0.0015258789 0.08058719 0.0067542195 -0.17364529 0.16818367 0.11618085 -0.02909334
0.15716393 0.17670475 -0.120408386 0.1478904 -0.12943761 0.02342233 0.078112826 -0.1380013
-0.14704251 -0.016603395 -0.1372837 0.123026 0.14165549 0.15825285 -0.112734884 0.13649939
0.16581188 -0.14459738 -0.12293124 0.049787566 0.07653488 0.013304174 0.08060993 0.16264288
0.10742949 -0.0035835803 -0.03585437 0.07372217 -0.1646011 0.04430093 0.07150525 0.07297668
0.098545745 -0.03668879 0.10809578 -0.13428923 0.04566689 0.10013105 -0.14566949 -0.014244917
0.16600089 -0.008723425 0.11009263 0.1314689 0.121162444 0.06852037 -0.14451742 -0.03460756
0.0015736222 0.09094094 0.004617554 -0.11574871 0.04797429 0.07217574 0.11390634 -0.022414237
0.12696695 -0.1099414 -0.05945015 -0.1497231 -0.014759719 0.0073567927 0.03340532 0.14114888
0.047605574 0.04470089 0.09666054 -0.02055104 -0.1469403 0.011398879 0.06668638 0.09309085
-0.111159235 -0.10428378 -0.1377319 -0.15439898 -0.01620984 -0.14260891 0.011311054 0.15530334
-0.16336896 0.11417304 0.035525814 -0.07666031 -0.06420326 -0.11920412 0.0035132319 -0.17617173
-0.07627627 -0.025924906 -0.035470977 0.09361078 0.13264139 0.05880259 -0.16471028 0.077646956
-0.054371223 0.15423341 -0.16477753 -0.113700435 0.020981207 -0.14204091 -0.08288654 0.032935932
-0.09865817 -0.15698983 0.09338285 -0.12009774 -0.1504931 -0.034325257 0.029282719 0.09710635
0.15204541 -0.15919657 -0.056543812 0.066017985 -0.080425814 0.096457794 -0.033016026 -0.13343494
0.079482034 -0.036460623 0.08547197 -0.058491334 -0.06478933 -0.16034113 -0.13170117 0.090285584
0.12126638 0.13288535 0.10201232 -0.12119162 0.04732223 0.062515825 0.09363933 0.13016893
00000000: 06a5 c3bd eb7b 4e3d fdf6 54bc 28dc f1bd
00000010: 046b d83d cee0 1bbe 5b11 c93c 143e 583d
00000020: 5484 113d dcfc 13be 3d01 80bd 1a90 f13d
00000030: 826a b53d dec1 de3d 70c8 c43d 8c28 30bd
00000040: 0085 f13d 6d80 313e d00e 73bc 8660 e93d
00000050: fc20 68bd 4677 ce3d ca15 fd3d c87c ea3c
00000060: ce27 e4bd e464 793d c968 dfbd 7b29 343e
00000070: 5c54 c7bd d844 08be cbd8 02be 3156 5c3d
00000080: 14d2 183e 26d9 54bd cbed 163e 8721 0d3e
00000090: 9901 f53d 86f2 e6bd af1c 053e 602e 0cbe
000000a0: ad09 0b3e f82c c43c 84c0 9a3d 1f93 003e
000000b0: 3e6f e5bd 9078 f7bc 2e92 d2bd 38ec 283d
000000c0: 6806 653d 8f7b 133e f7ea 10be 6e17 5abd
000000d0: 9c33 843d a0f0 1abe bff6 0ebe 18f7 97bd
000000e0: 6827 2fbd b147 193e 4eb1 75bd 3eb2 df3d
000000f0: 7cec 18be a9ac a63d 9d72 a83c 66ec eebd
00000100: 0065 30bc ec2e 1fbe b00f 9dbc fafe 9c3d
00000110: b68b df3d 3fc5 0f3e 9094 f5bc a8c8 373d
00000120: ad5f 1b3e c0f2 7abd 671e 14be 5326 173e
00000130: e9fe 2bbe a4c0 2bbe 54c8 7dbd 653b 16be
00000140: d161 133e 70ec d0bc f047 32bd 96f2 fcbd
00000150: 64bb 873d bcbc f5bd 80a5 d7bc c420 6cbd
00000160: 505b 1fbc 8098 5a3d 361b 22be e51c e9bd
00000170: 3894 923c aa79 1cbe f681 2bbe 6ae1 f33d
00000180: 0084 16bc 2abc 8c3d 0e76 22be b091 38bd
00000190: 2273 b33d 2071 7d3c baef babd b218 ea3d
000001a0: dc97 2fbd b383 1b3e 33f6 0e3e 9e23 c83d
000001b0: d184 acbd 68fd d2bc 0626 db3d 7720 cdbd
000001c0: e8af 2dbe 0000 c8ba e60a a53d 8052 dd3b
000001d0: 12d0 31be 5738 2c3e 3af0 ed3d 2855 eebc
000001e0: 95ef 203e 17f2 343e ac98 f6bd 9570 173e
000001f0: 4b8b 04be 30e0 bf3c 9ef9 9f3d 3650 0dbe
00000200: 5092 16be d803 88bc 1994 0cbe 0ef5 fb3d
00000210: 230e 113e 090d 223e 8ce1 e6bd 7fc6 0b3e
00000220: 97ca 293e 5611 14be 60c3 fbbd 0cee 4b3d
00000230: 52be 9c3d c0f9 593c d216 a53d db8b 263e
00000240: fe03 dc3d 80da 6abb 08dc 12bd a6fb 963d
00000250: 318d 28be e474 353d 5871 923d cc74 953d
00000260: 5ad2 c93d fc46 16bd 5261 dd3d 1e83 09be
00000270: 340d 3b3d 8211 cd3d 622a 15be 8363 69bc
00000280: 23fc 293e b2ec 0ebc 3f78 e13d c99f 063e
00000290: 0424 f83d 6854 8c3d 60fc 13be a8c0 0dbd
000002a0: 0042 ce3a 3e3f ba3d da4e 973b a90d edbd
000002b0: b080 443d e0d0 933d ba47 e93d 109e b7bc
000002c0: a003 023e f528 e1bd 0082 73bd 0351 19be
000002d0: c0d2 71bc 4011 f13b 04d4 083d 5589 103e
000002e0: 10fe 423d 4818 373d f6f5 c53d a85a a8bc
000002f0: 8577 16be 5dc2 3a3c de92 883d 6aa6 be3d
00000300: 74a7 e3bd bc92 d5bd 9709 0dbe c41a 1ebe
00000310: 80ca 84bc 1208 12be 0052 393c d707 1f3e
00000320: 314a 27be 8ed3 e93d 8483 113d 1500 9dbd
00000330: 007d 83bd 4a21 f4bd 403e 663b 5d66 34be
00000340: bc36 9cbd 7860 d4bc 044a 11bd 02b7 bf3d
00000350: 25d3 073e fcda 703d d0a9 28be 5e05 9f3d
00000360: 5cb4 5ebd 5def 1d3e 71bb 28be c6db e8bd
00000370: c8e0 ab3c 2c73 11be 6bc0 a9bd d4e7 063d
00000380: 4b0d cabd f1c1 20be 823f bf3d cef5 f5bd
00000390: dd1a 1abe a498 0cbd 50e2 ef3c b2df c63d
000003a0: cbb1 1b3e 6d04 23be 7c9a 67bd 7034 873d
000003b0: 4ab6 a4bd aa8b c53d d03b 07bd 2ba3 08be
000003c0: 7ac7 a23d bc57 15bd ee0b af3d 9c94 6fbd
000003d0: 45b0 84bd 7730 24be acdc 06be a6e7 b83d
000003e0: 825a f83d 1913 083e d6eb d03d 5033 f8bd
000003f0: f4d4 413d 4c08 803d fac5 bf3d 014b 053e

shared.2.bias f4 [16]
-0.188014 -0.01568815 -0.12379161 0.082138166 -0.11992098 0.15021753 0.028538808 -0.10343614
0.0028440058 -0.0074402094 0.14578868 0.27898404 -0.23137957 -0.16604075 -0.20890868 0.3679621
00000000: be86 40be 6f84 80bc 7586 fdbd 0e38 a83d
00000010: 2199 f5bd a0d2 193e 38ca e93c 54d6 d3bd
00000020: 8062 3a3b 00cd f3bb a149 153e ffd6 8e3e
00000030: c4ee 6cbe 9606 2abe 28ec 55be 8765 bc3e

rev_head.weight f4 [1, 16]
-0.12227166 0.16454405 0.09108129 0.113007456 0.1660202 -0.18245313 -0.23148641 -0.114836305
0.074036896 -0.16508314 -0.07152179 0.096353784 0.18462382 0.09949691 0.042325724 0.19575688
00000000: 9069 fabd 3c7e 283e d488 ba3d 7470 e73d
00000010: 3301 2a3e fed4 3abe c60a 6dbe 4c2f ebbd
00000020: a8a0 973d 8e0b 29be 047a 92bd 2255 c53d
00000030: 070e 3d3e 09c5 cb3d bd5d 2d3d 7e74 483e

surv_head.weight f4 [3, 16]
0.32438213 0.19830224 0.15988928 -0.09760171 -0.23713672 0.3446879 0.16067237 0.24580508
0.010682911 -0.09126195 -0.17143114 -0.02164611 0.24599561 0.31643534 -0.015871419 0.123715095
0.17927581 -0.08610236 -0.023068964 -0.08960253 -0.0881574 -0.21053682 0.013668388 -0.11296597
-0.17413911 -0.16192377 0.023694426 -0.00025958405 0.14067164 0.08329844 0.25722587 -0.19205867
-0.038940575 0.22333296 -0.039961666 -0.08482206 0.24047205 -0.11321548 0.1936852 0.2305468
0.12073699 -0.16921332 0.11843785 -0.043580145 0.13618062 0.21989271 0.009577176 -0.2309959
00000000: 6a15 a63e be0f 4b3e 04ba 233e 68e3 c7bd
00000010: f8d3 72be ef7a b03e 4c87 243e 54b4 7b3e
00000020: 6007 2f3c 8ce7 babd a58b 2fbe 2f53 b1bc
00000030: 46e6 7b3e d003 a23e c704 82bc 575e fd3d
00000040: 1494 373e 6f56 b0bd 20fb bcbc 8881 b7bd
00000050: de8b b4bd f796 57be 60f1 5f3c b45a e7bd
00000060: 8651 32be 58cf 25be d01a c23c c818 88b9
00000070: 3a0c 103e 5f98 aa3d 1cb3 833e 07ab 44be
00000080: 2780 1fbd 65b1 643e d8ae 23bd 30b7 adbd
00000090: 4e3e 763e 85dd e7bd 6a55 463e 7614 6c3e
000000a0: f444 f73d 4246 2dbe 8b8f f23d 1881 32bd
000000b0: ef72 0b3e 8e2b 613e 96e9 1c3c 308a 6cbe

surv_head.bias f4 [3]
0.419212 -0.049601316 -0.5126385
00000000: f5a2 d63e c02a 4bbd 473c 03bf
